Introduction to Pytorch/our_model.tar (torch, 2144 bytes, 3 tensors)

linear1.weight f4 [4, 2]
-2.603355 -3.3292205 1.97743 -2.4075968 -2.5967574 -1.5907909 -0.5716698 -0.81006485
00000000: 5e9d 26c0 f311 55c0 6d1c fd3f 1116 1ac0
00000010: 4631 26c0 099f cbbf f458 12bf 6960 4fbf

linear1.bias f4 [4]
1.4459245 -1.3991992 2.9881556 -0.13746041
00000000: 0e14 b93f f618 b3bf f13d 3f40 6cc2 0cbe

linear2.weight f4 [1, 4]
-4.4622593 3.0884962 4.4030466 -0.13767737
00000000: d4ca 8ec0 eca9 4540 c2e5 8c40 4cfb 0cbe
